data.pth (torch, 4799 bytes, 6 tensors)

l1.weight f4 [8, 51]
000000 e6 2c 78 3e 7f a5 ca 3e bb 10 96 3e e5 5a c4 3d
       0.24235877 0.39579388 0.2930964 0.09587649
000010 c2 64 ac 3e 4b 6b 84 be 4f 9f be be 61 2b 1d be
       0.33670622 -0.25863108 -0.37230918 -0.15348579
000020 6e fb 85 3e 30 26 c8 3e 51 a4 9d 3e 9b 8a 9e be
       0.26168388 0.39091635 0.30789426 -0.30965123
000030 d3 39 ad be c4 df f3 3e 0c 25 8d 3e c0 6c c2 3e
       -0.3383318 0.47631657 0.27567327 0.37973595
000040 b8 f4 b6 bd 72 ae 23 bb 56 7d 41 3f fb 85 2d 3f
       -0.08933395 -0.0024975804 0.7558187 0.6778256
000050 ea ef 0f 3f 5a 34 66 3e 23 91 ae be 12 15 69 3b
       0.56225455 0.22480908 -0.34095106 0.0035565537
000060 1e 1b 68 3c 0b 2b b2 3e 7e 67 20 3e ed e6 84 be
       0.0141666215 0.34798464 0.15664479 -0.25957432
000070 89 30 9e 3d 1e 5c ee 3d 2d f8 73 3e f5 e7 87 3a
       0.07724101 0.11638664 0.2382514 0.0010368811
000080 57 d1 b5 3e 86 81 4f 3e c3 03 e2 bd ab d0 44 3c
       0.35511276 0.20264253 -0.11035874 0.012012641
000090 da d1 ac be 11 9f 88 3e e5 b3 0e 3e 21 15 4f be
       -0.33753854 0.26683858 0.13935812 -0.20222904
0000a0 2e f1 6e be d8 94 b0 3e 55 4e 17 be 2a f3 aa 3e
       -0.2333419 0.3448856 -0.14775975 0.33388644
0000b0 76 c7 92 be 5a a3 9d 3e 8b 55 6c 3e d3 52 d1 bd
       -0.28667802 0.3078869 0.23079507 -0.102208756
0000c0 7b 74 5f be 5d fc a9 3e e2 95 aa 3d fb 10 74 3e
       -0.21821778 0.3320035 0.08329369 0.23834603
0000d0 79 04 9e 3e 1d d6 4a 3e 97 54 31 3e 6c a2 0f 3f
       0.30862787 0.1980824 0.17317425 0.5610721
0000e0 0a e1 64 be 77 70 26 3d 9e f2 9e 3d 43 ad f1 3e
       -0.2235147 0.0406346 0.07761119 0.472025
0000f0 7c 1c 66 be 63 e6 0e 3f d2 2d 9b 3e 24 d9 52 3e
       -0.22471803 0.5582029 0.30308396 0.20590645
000100 2c bb 9e bd fa d7 e8 3e cf d0 dc 3e 07 3a 63 3d
       -0.07750544 0.45477277 0.43128058 0.05547526
000110 4c 44 33 3d bd a7 9a be 79 77 9a be 3c b9 9a be
       0.043766305 -0.302061 -0.30169275 -0.30219448
000120 7e 60 0e 3f 20 43 c5 3d ad a5 97 bd 1f 04 ae bd
       0.55615985 0.09631944 -0.07404647 -0.0849688
000130 ed 4f 11 3e 13 4c 84 3e 7f c4 9e 3e 75 e9 19 bf
       0.14190646 0.2583929 0.3100929 -0.6012185
000140 e6 95 fc 3e 71 b5 fa 3e d5 8c bd 3e 9b 98 f8 3e
       0.49333113 0.48966554 0.3702151 0.4855393
000150 0a 3c 40 3e 9e ac 26 3e 99 13 a9 3e b0 7c 51 3e
       0.18772903 0.16276786 0.33022764 0.20457721
000160 d7 5b cd 3e 97 b0 80 3e 23 d6 b8 3e 85 f2 af be
       0.4010913 0.25134727 0.36100873 -0.34364715
000170 b5 60 67 3e d1 50 9a 3d 5b b0 29 3e d3 ea fd 3c
       0.22595485 0.07534946 0.1657118 0.030995762
000180 b6 cb 1f 3e fe 83 08 3f 1f a0 10 bf 8f a9 cc 3d
       0.15605053 0.53326404 -0.56494325 0.09993278
000190 c1 20 3c 3e a3 cf 5b 3e d5 3c 27 be 5e 6e d0 3e
       0.1837187 0.21465926 -0.163318 0.40709203
0001a0 71 84 4a be 73 44 6a be 13 31 f9 3e 35 35 c6 bd
       -0.19777085 -0.22877674 0.48670253 -0.09678117
0001b0 48 a0 e5 3e cb d2 07 3f 9f 46 d3 3d 94 e2 c1 bc
       0.44848847 0.5305602 0.10316204 -0.023667611
0001c0 87 a2 ed bd 09 81 29 3f d6 22 a4 3e 4c ef f0 be
       -0.11603265 0.6621252 0.32057828 -0.4705757
0001d0 7c d7 06 3f 6f 1a c5 3e 28 da 80 3e 5f f9 1a 3f
       0.52672553 0.3849673 0.2516644 0.6053676
0001e0 b2 78 0b bf 9d 6e 0b bf 9a 7d 0b bf c7 c9 04 3f
       -0.5448104 -0.5446566 -0.5448853 0.5187039
0001f0 cf 52 d5 3e bd 43 f2 3e 9e 28 af bd ce af 98 3e
       0.4166474 0.47317305 -0.08552669 0.29821628
000200 55 c9 2e be 02 55 da 3e e3 88 1e bf 93 b7 3d be
       -0.1706899 0.4264298 -0.6192762 -0.1852706
000210 08 4e 9e 3e be 33 4c bd b4 50 17 3f 0f 7c d0 bd
       0.30918908 -0.049854033 0.5910752 -0.10179912
000220 6a 95 fd 3e e2 05 9a be 5a e5 db 3e 95 0b 19 3f
       0.49528056 -0.30082613 0.4294842 0.597833
000230 1c e5 4b be 6b 78 05 3e 98 ab 66 be f9 9a 5f be
       -0.19911617 0.13034217 -0.22526395 -0.21836461
000240 68 8b cf 3e d1 e4 3f be 26 d7 21 3f 25 49 92 be
       0.40536046 -0.1873963 0.63218915 -0.2857143
000250 62 af 9e 3e d6 25 b7 be a4 6c 90 3e 99 69 21 3e
       0.3099318 -0.35771054 0.28207886 0.15762939
000260 50 d5 d9 3e ea 9b c0 bd 17 5d 06 be 04 1f 0c 3e
       0.42545557 -0.09404738 -0.13121448 0.13683707
000270 88 c4 b9 bd e3 2a 46 be 2e 8e 04 3f 1e 2b 09 be
       -0.090706885 -0.19352297 0.5177945 -0.13395354
000280 f2 0b 2f 3e 56 e2 f8 3e 94 d5 f6 bd 7f a3 f6 bd
       0.170944 0.4861018 -0.120524555 -0.12042903
000290 72 af 5e 3d ce 69 cb 3d 00 b3 96 bd e6 9d 46 be
       0.054366536 0.0993229 -0.0735836 -0.19396171
0002a0 28 da 28 3d 07 d9 83 3d 3b c9 2e bd ff 38 46 be
       0.041223675 0.06437879 -0.042672377 -0.1935768
0002b0 ea 20 46 be 7e 12 46 be 6c 7b 11 bf e9 44 60 be
       -0.19348493 -0.19342992 -0.5682895 -0.21901287
0002c0 da 6e d1 3e 94 a1 d9 3e 01 6e 36 be 32 fc 75 bd
       0.40904886 0.42506087 -0.178154 -0.060054965
0002d0 10 9b 1e bd 93 64 1e 3f 19 38 c3 3c 96 c9 e8 3c
       -0.038722098 0.61872214 0.02383046 0.028416436
0002e0 d9 24 54 3d 80 19 46 be 1a 5f 66 be b2 9a a3 3b
       0.051792953 -0.19345665 -0.22497216 0.0049928064
0002f0 82 61 b1 be f3 1f 08 bd d1 ea f6 be 9c af 15 be
       -0.34644705 -0.033233594 -0.48226026 -0.14617771
000300 aa 7c fe be 61 0c e2 3e 64 96 05 be 0d 47 e9 3c
       -0.49704486 0.4415007 -0.1304565 0.028476262
000310 a4 1a 4d bb 78 ff 27 be 9e 17 d3 3e 57 44 33 3e
       -0.0031296397 -0.16406047 0.41228956 0.17506538
000320 49 3e 2f 3f a4 4e f5 3d e7 5c c0 3e bc 26 86 3e
       0.68454415 0.1197789 0.3757088 0.26201427
000330 a6 6a a0 3e ad 6a dd bd e8 06 3b 3f 14 8d 80 3e
       0.31331366 -0.108113624 0.73057413 0.25107634
000340 bc 22 8d be fe 0b 95 3e 76 7c 96 bd d7 65 02 be
       -0.27565563 0.29110712 -0.07347958 -0.12734161
000350 7c b5 dd 3e 15 b5 16 be 13 59 db 3e e6 a5 1d 3b
       0.43302524 -0.14717515 0.42841396 0.0024055182
000360 80 50 af bd ce a8 03 be 6a 53 8d be 08 11 8d 3d
       -0.08560276 -0.12857363 -0.27602702 0.06888014
000370 99 ee 93 3d 8e d3 b6 bd 87 27 8d be b0 08 8d be
       0.07223243 -0.089270696 -0.2756922 -0.2754569
000380 4c 0c 8d be 33 35 38 3f 41 f3 1d be f6 19 a3 3d
       -0.27548444 0.71956176 -0.15424825 0.07963936
000390 34 43 50 3e b2 e2 26 bd ce 44 b8 3e 90 67 7d bd
       0.20338136 -0.040743537 0.35989994 -0.061866343
0003a0 69 ae e2 3e 64 b3 39 3f c2 10 d3 3e 82 ba 2f 3f
       0.4427369 0.72539353 0.41223723 0.68643963
0003b0 56 07 8d be 7d 7d dd 3d 7b d2 85 bd c2 d1 f0 3c
       -0.2754466 0.108149506 -0.065342866 0.029396895
0003c0 80 3f 92 bd be d9 11 bf 4e d7 cc 3d 94 71 c8 3d
       -0.07141018 -0.56972873 0.100020036 0.09787288
0003d0 f0 cc 78 3e 86 5f 3b 3e ee 5a 35 3d 09 53 90 3e
       0.24296927 0.18298158 0.04427617 0.2818835
0003e0 ad 2a 59 be f4 b7 f6 3e ca f0 18 3f 8f f6 0f 3f
       -0.21207686 0.4818722 0.59742415 0.56235594
0003f0 19 b7 98 bc 60 15 97 3e eb 26 98 3e ad fd 5e 3d
       -0.018641995 0.29508495 0.29717192 0.054441143

l1.bias f4 [8]
000000 95 c1 8e 3f 5e b3 9a 3e 42 7f 0b 3f 2f 1a 46 3e
       1.1152827 0.3021497 0.54491055 0.19345926
000010 12 00 8d 3e e8 77 ab 3e 7b e5 c9 3e 45 d0 83 3e
       0.27539116 0.3348992 0.39432892 0.25744835

l2.weight f4 [8, 8]
000000 16 ba 11 3f 8a 99 a6 be 88 05 51 bf 59 6a e3 3e
       0.5692457 -0.32539016 -0.81649065 0.44417074
000010 79 82 4a 3e 62 6e 3b bf c3 02 76 3f 35 a1 69 3f
       0.19776334 -0.73215306 0.96097964 0.9126161
000020 38 6c 0e 3f 67 e5 5e 3f 6b 56 41 bf 78 ce de be
       0.5563388 0.8706879 -0.7552249 -0.43516898
000030 37 50 5c 3f cc d2 2e 3d ef 79 cb 3e 43 34 08 3f
       0.860599 0.0426815 0.39741465 0.53204745
000040 4c bf 91 3f 28 60 c8 bd 03 fd 93 3e d9 50 6a bf
       1.1386504 -0.09783965 0.2890397 -0.91529614
000050 26 bc 92 bf 0a 78 39 bd ba bf da 3e 3e 5e 53 bf
       -1.1463668 -0.045280494 0.427244 -0.8256568
000060 3a aa cd bd fd b4 b6 3f d7 dc b1 3f 5c c5 0d bf
       -0.10042234 1.4273983 1.389552 -0.5537927
000070 f2 51 d6 bd d8 40 75 3f 4d 19 bc be 92 f0 4c 3f
       -0.104648486 0.9580207 -0.36738053 0.8005458
000080 85 7e 6c be eb 85 15 bf 8c af 04 bf 86 ce 63 3f
       -0.23095138 -0.5840747 -0.51830363 0.88987005
000090 0a 04 d4 3e cf 12 d6 3d af f4 22 3f 73 31 e9 be
       0.41409332 0.10452806 0.6365461 -0.4554554
0000a0 eb 47 94 3e be 70 58 be c7 b9 f7 be da df b5 3e
       0.2896112 -0.21136758 -0.48383924 0.35522348
0000b0 b6 dc 61 3f c6 9d 40 3e f8 b4 50 3f d0 d1 07 bf
       0.88227403 0.18810186 0.81526136 -0.53054523
0000c0 07 9f 82 be 1f 84 c9 3e e7 bc 44 3e 81 0e 75 3f
       -0.25511953 0.39358613 0.19212686 0.95725256
0000d0 e1 dc 81 3f b6 cc 8d 3e 84 94 81 3f e0 4a 87 3f
       1.0145532 0.27695245 1.0123448 1.0569725
0000e0 4d 70 fc 3e d9 18 92 3e be e8 47 3e 87 0d f5 3e
       0.4930443 0.28534582 0.19522378 0.47861883
0000f0 f5 b6 85 3e e9 37 a9 3f 5b 34 1b bf 48 d7 26 bf
       0.26116148 1.3220187 -0.60626763 -0.65172243

l2.bias f4 [8]
000000 a0 d0 f8 3e 5f f0 e3 bd e9 26 55 3f ad 64 00 3f
       0.48596668 -0.111298315 0.832625 0.5015362
000010 b1 8e a6 bd de 9b e0 3d 1c 17 c9 be e4 0e 19 3d
       -0.08132685 0.10967229 -0.39275444 0.037367716

l3.weight f4 [6, 8]
000000 d0 aa 62 bf a2 a9 a7 bd dc 9a fa 3e 7b f8 d9 3e
       -0.8854189 -0.08186652 0.48946273 0.42572388
000010 be 1a 07 bf c6 e8 ba bf 03 c2 80 bf f9 97 4f 3f
       -0.5277518 -1.4602287 -1.0059208 0.81091267
000020 85 cf 3e 3f 01 85 bd bc 3d dc 94 3f 72 c8 6d bf
       0.745354 -0.02313471 1.1629711 -0.9288398
000030 c5 75 25 bf 58 2d 5a 3f fb 5b 93 bf c1 ea 8a bf
       -0.6463283 0.8522544 -1.1512445 -1.0852891
000040 c7 1d 64 bf 62 cb e2 3e f2 77 aa bf cf 2e 21 bd
       -0.89107937 0.44295794 -1.3317854 -0.03935128
000050 f6 6c 95 bf 6d 80 16 3f 5c 93 43 bd a1 95 23 3f
       -1.1673877 0.5878971 -0.047747955 0.6390019
000060 d1 7b b4 3e 48 67 01 bf 50 4f 87 bf ca 1a b2 bf
       0.35250714 -0.5054822 -1.0571079 -1.3914425
000070 08 9b 90 3f 7b 05 f2 3e b2 13 88 3e 00 39 f3 3e
       1.1297312 0.47269806 0.26577526 0.47504425
000080 63 fa 28 3f d1 6a 1f 3f 02 45 8a bf 26 b3 9b be
       0.6600706 0.62272364 -1.080231 -0.30410117
000090 98 d0 68 bf ab cb 01 be b3 f3 6b 3e 1f e8 af bf
       -0.9094329 -0.1267535 0.23042183 -1.3742713
0000a0 75 1f 33 bf 5c b5 3f bf 6b a4 90 bf 5d 76 32 3f
       -0.69969875 -0.7488611 -1.1300176 0.6971186
0000b0 af 91 2b bf ec b3 67 bf a5 a6 b8 3e 0a 24 9b bf
       -0.6701917 -0.90508914 0.3606464 -1.2120373

l3.bias f4 [6]
000000 d0 c7 c6 3e 92 28 c1 3e 29 f1 b3 be c3 68 3b 3e
       0.3882432 0.37726265 -0.35144928 0.18301682
000010 22 93 07 be 5e fc 21 3e
       -0.1323972 0.15818927
